…
），卷积核数 输入通道数 3×3×32×1×32×32 ≈ 0.98M 逐点卷积（Pointwise） 用 1×1 卷积核**融合通道特征**（只融合通道，不提取空间特征），卷积核数 输出通道数 1×1×32×64×32×32 ≈ 2.1M 总计 深度卷积 + 逐点卷积 ≈3.08M（仅为传统的 1/6） #### 移植 在实际移植的时候是根据这个模型的结构, 对原有的网络进行一部分的替换, 还是使用配置文件, 我们需要使用的是他的特征提取部分的网络 ```python from torchvision import models model models.mobilenet_v3_small(pretrained True ,progress True) # 查看一下安装yolo输入的话各层输出 from torchinfo import summary summary(model, input_size (1, 3, 640, 640)) \"\"\" Layer (type:depth idx) Output Shape Param # MobileNetV3 [1, 1000] ├─Sequential: 1 1 [1, 576, 20, 20] │ └─ConvNormActivation: 2 1 [1, 16, 320, 320] │ │ └─Conv2d: 3 1 [1, 16, 320, 320] 432 │ │ └─BatchNorm2d: 3 2 [1, 16, 320, 320] 32 │ │ └─Hardswish: 3 3 [1, 16, 320, 320] │ └─InvertedResidual: 2 2 [1, 16, 160, 160] │ │ └─Sequential: 3 4 [1, 16, 160, 160] 744 │ └─InvertedResidual: 2 3 [1, 24, 80, 80] │ │ └─Sequential: 3 5 [1, 24, 80, 80] 3,864 │ └─InvertedResidual: 2 4 [1, 24, 80, 80] │ │ └─Sequential: 3 6 [1, 24, 80, 80] 5,416 │ └─InvertedResidual: 2 5 [1, 40, 40, 40] │ │ └─Sequential: 3 7 [1, 40, 40, 40] 13,736 │ └─InvertedResidual: 2 6 [1, 40, 40, 40] │ │ └─Sequential: 3 8 [1, 40, 40, 40] 57,264 │ └─InvertedResidual: 2 7 [1, 40, 40, 40] │ │ └─Sequential: 3 9 [1, 40, 40, 40] 57,264 │ └─InvertedResidual: 2 8 [1, 48, 40, 40] │ │ └─Sequential: 3 10 [1, 48, 40, 40] 21,968 │ └─InvertedResidual: 2 9 [1, 48, 40, 40] │ │ └─Sequential: 3 11 [1, 48, 40, 40] 29,800 │ └─InvertedResidual: 2 10 [1, 96, 20, 20] │ │ └─Sequential: 3 12 [1, 96, 20, 20] 91,848 │ └─InvertedResidual: 2 11 [1, 96, 20, 20] │ │ └─Sequential: 3 13 [1, 96, 20, 20] 294,096 │ └─InvertedResidual: 2 12 [1, 96, 20, 20] │ │ └─Sequential: 3 14 [1, 96, 20, 20] 294,096 │ └─ConvNormActivation: 2 13 [1, 576, 20, 20] │ │ └─Conv2d: 3 15 [1, 576, 20, 20] 55,296 │ │ └─BatchNorm2d: 3 16 [1, 576, 20, 20] 1,152 │ │ └─Hardswish: 3 17 [1, 576, 20, 20] ├─AdaptiveAvgPool2d: 1 2 [1, 576, 1, 1] ├─Sequential: 1 3 [1, 1000] │ └─Linear: 2 14 [1, 1024] 590,848 │ └─Hardswish: 2 15 [1, 1024] │ └─Dropout: 2 16 [1, 1024] │ └─Linear: 2 17 [1, 1000] 1,025,000 Total params: 2,542,856 Trainable params: 2,542,856 Non trainable params: 0 Total mult adds (M): 446.48 Input size (MB): 4.92 Forward/backward pass size (MB): 184.56 Params size (MB): 10.17 Estimated Total Size (MB): 199.65 \"\"\" # 查看一下实际的实现, 使用features部分的网络 model \"\"\" MobileNetV3( (features): Sequential( (0): ConvNormActivation( (0): Conv2d(3, 16, kernel_size (3, 3), stride (2, 2), padding (1
…
